ai-model/models/trained_model.pth (torch, 3524 bytes, 5 tensors)

fc1.weight f4 [16, 4]
0	0xbef18b00	-0.4717636
1	0xbd1e8830	-0.038704097
2	0x3dcbfa08	0.09959799
3	0xbe073fb4	-0.13207895
4	0x3f802218	1.0010405
5	0x3e9e047e	0.30862802
6	0x3e793cfb	0.24339668
7	0xbe9aef06	-0.30260485
8	0xbec180a4	-0.37793458
9	0x3dd4dc50	0.10393584
10	0xbee6ffb6	-0.45116967
11	0xbee8e46c	-0.45486772
12	0x3e88fda3	0.2675601
13	0x3e8c452d	0.27396527
14	0xbe3ca180	-0.18420982
15	0x3e6c4217	0.23072086
16	0x3defd8cf	0.11711275
17	0x3e2f1603	0.1709824
18	0xbf0a225c	-0.5395868
19	0xbf0e56b3	-0.5560104
20	0xbf0c3529	-0.54768616
21	0x3e409c31	0.18809582
22	0x3e97bd39	0.29636553
23	0xbf0ace41	-0.5422097
24	0x3d0288e5	0.031868834
25	0xbea4b6ee	-0.32170814
26	0xbedc9db5	-0.4308907
27	0x3d554b55	0.052073795
28	0x3f68d79d	0.90954
29	0x3f2eb8dd	0.6825083
30	0xbe80d110	-0.25159502
31	0x3dc814ec	0.097696155
32	0xbef5841c	-0.47952354
33	0xbee77798	-0.4520843
34	0xbeb820a0	-0.3596239
35	0xbe7a1d58	-0.24425256
36	0x3e0d1277	0.13776575
37	0x3eb5861d	0.35453883
38	0x3d6e0bff	0.05811691
39	0x3e82e7b4	0.255674
40	0x3f5eb1fd	0.8699034
41	0x3f254060	0.64551353
42	0xbd5cb793	-0.053886008
43	0x3eff62e6	0.4988014
44	0x3f3f79f1	0.7479544
45	0xbe3cd8fe	-0.18442151
46	0xbeb6abd1	-0.3567796
47	0x3eab4a30	0.33455038
48	0x3eae3d13	0.3403097
49	0x3f27d167	0.655539
50	0x3ef379bb	0.4755381
51	0x3ee4e9d8	0.4470966
52	0xbecb7fc0	-0.39745903
53	0xbd1141b0	-0.035463035
54	0xbefba462	-0.49148852
55	0xbdd36750	-0.1032244
56	0xbd869118	-0.06570643
57	0xbe4515c4	-0.19246584
58	0x3d3c0bf0	0.045909822
59	0xbeddd682	-0.4332772
60	0x3f73b711	0.9520121
61	0x3f0f9a9e	0.560953
62	0x3e936ba0	0.2879305
63	0xbc146b07	-0.00905872

fc1.bias f4 [16]
0	0xbeae2d6e	-0.34019035
1	0xbd60768f	-0.054800566
2	0x3e6afb30	0.22947383
3	0x3f022319	0.50834805
4	0x3da56b4c	0.08077106
5	0xbe5e8014	-0.21728545
6	0x3dab1e51	0.08355392
7	0xbe04420e	-0.12915823
8	0x3d949260	0.07254481
9	0x3e85e201	0.2614899
10	0x3eaae2a9	0.33376053
11	0x3f1fa5db	0.6236245
12	0xbdf11751	-0.117720254
13	0xbe70d52c	-0.23518819
14	0x3d68e7d0	0.0568617
15	0x3e4a9b2f	0.1978576

fc2.weight f4 [8, 16]
0	0x3e65b16c	0.22430962
1	0xbdb81a2b	-0.08989366
2	0x3e045d96	0.12926325
3	0xbc03201f	-0.008003264
4	0x3e0a3df8	0.13500202
5	0xbe7c3c40	-0.24632359
6	0x3e37ee36	0.17961964
7	0xbd1ae445	-0.03781535
8	0x3e0c7d52	0.13719681
9	0x3deebec0	0.116574764
10	0xbded6271	-0.11591042
11	0xbe619d28	-0.22032607
12	0x3db7976f	0.089644305
13	0xbe5f331e	-0.21796843
14	0x3cb4d8d0	0.02207604
15	0x3dba8694	0.091077
16	0xbdee7748	-0.11643845
17	0x3f406e37	0.75168175
18	0x3de5beac	0.112180084
19	0x3eb63d4c	0.3559364
20	0xbb9f53bf	-0.0048622782
21	0xbe406866	-0.18789825
22	0xbda1ffa4	-0.07910088
23	0x3eedd190	0.46448946
24	0xbdb049d8	-0.086078346
25	0x3e7ea7a7	0.24868642
26	0x3e68b655	0.22725804
27	0x3e73fb2e	0.23826286
28	0x3ea5693c	0.3230685
29	0xbcd17b30	-0.025571436
30	0xbe72385e	-0.23654315
31	0x3ea8e8af	0.32990023
32	0xbcd7fcc0	-0.026365638
33	0x3e4b7ec5	0.19872577
34	0x3e6f94b6	0.23396572
35	0xbdce0bf0	-0.10060871
36	0x3c237265	0.009976004
37	0xbe19bb0c	-0.15012759
38	0xbe0b53da	-0.13606206
39	0x3dee104c	0.11624202
40	0xbd484088	-0.048889667
41	0x3dd61dca	0.104549006
42	0xbe8737d3	-0.26409778
43	0xbe58b3fa	-0.21162406
44	0x3d5d58f9	0.05403993
45	0x3dcb5688	0.09928614
46	0x3e226164	0.15857464
47	0xbe5d1e3a	-0.21593562
48	0x3e7e9c1a	0.24864236
49	0x3edd0fa6	0.43176
50	0xbd321068	-0.043472677
51	0x3e85ae90	0.26109743
52	0xbd120e35	-0.03565808
53	0xbe27fd28	-0.16405165
54	0xbe36bfab	-0.17846553
55	0x3f1de3cc	0.61675715
56	0xbc1f5ba0	-0.009726435
57	0x3e94b5ad	0.29044858
58	0x3ec37bf1	0.38180497
59	0x3f136185	0.5757068
60	0xbc43aa5e	-0.011942474
61	0x3e4b3d84	0.19847685
62	0x3e257918	0.16159475
63	0x3e4ed92b	0.2020003
64	0xbe26d036	-0.16290364
65	0x3ee534e6	0.4476692
66	0xbe342fa8	-0.17596304
67	0x3e17f1a8	0.14838278
68	0x3d7c092c	0.061532184
69	0x3dd0c27c	0.10193345
70	0xbe267d9b	-0.16258852
71	0x3f1a2c54	0.6022389
72	0xbd036808	-0.032081634
73	0x3c971f7d	0.018447632
74	0x3ebb06f2	0.36528736
75	0x3f0422fb	0.51615876
76	0x3ea0292a	0.31281406
77	0x3e704b8e	0.23466322
78	0xbcb41db0	-0.021986812
79	0x3e80507d	0.25061408
80	0x3e75f31e	0.24018523
81	0x3dea62b2	0.11444606
82	0xbd151418	-0.036396116
83	0xbc7c8b5f	-0.015414088
84	0xbdcf0d1d	-0.10109923
85	0xbc3742a3	-0.011185321
86	0x3e2489e6	0.16068229
87	0xbe63e477	-0.22255121
88	0xbe084cae	-0.13310501
89	0x3df7d71c	0.12101576
90	0x3d94845b	0.07251807
91	0xbe18be7a	-0.14916411
92	0xbe85e4dc	-0.26151168
93	0x3e44973e	0.1919832
94	0xbdc5c21c	-0.09656164
95	0xbd182832	-0.03714771
96	0x3e202928	0.156407
97	0xbe221a5e	-0.15830371
98	0x3e2e63d6	0.17030272
99	0x3c50e6c0	0.012750328
100	0x3d9f45d0	0.077769876
101	0x3c16c7c0	0.009202898
102	0xbe19166c	-0.1494996
103	0xbe300d84	-0.17192656
104	0xbe170d16	-0.14751086
105	0x3dd23528	0.10264045
106	0xbe34654e	-0.1761677
107	0x3cf88950	0.030338913
108	0xbdb1bc7c	-0.08678529
109	0x3e1cadcc	0.15300673
110	0xbcf99960	-0.030468643
111	0x3e7d5326	0.2473875
112	0x3e7c3b12	0.24631909
113	0x3dcc81fc	0.0998573
114	0xbd909e14	-0.07061401
115	0xbc0bba60	-0.008528322
116	0xbdc02bbc	-0.09383342
117	0xbe43372c	-0.19064015
118	0x3e2d0446	0.16896161
119	0xbe015416	-0.12629732
120	0x3ddc183c	0.1074681
121	0xbdbb3204	-0.09140399
122	0x3c349660	0.01102218
123	0xbbd927c0	-0.006627053
124	0xbe1e0ab4	-0.1543377
125	0xbe3b2058	-0.18274057
126	0xbd77af08	-0.060469657
127	0xbde96020	-0.113952875

fc2.bias f4 [8]
0	0xbddc60b9	-0.10760636
1	0x3eb9639f	0.36208817
2	0x3e115245	0.1419154
3	0x3ecfa769	0.4055741
4	0x3ef68828	0.48150754
5	0x3e0eb42f	0.13935922
6	0xbe0927f8	-0.13394153
7	0xbd11e0f0	-0.035614908

fc3.weight f4 [1, 8]
0	0xbd833fab	-0.06408628
1	0xbec53375	-0.3851582
2	0x3e10b5e8	0.14131892
3	0xbf040913	-0.51576346
4	0xbe93ab00	-0.288414
5	0x3e61a7c0	0.22036648
6	0x3def98b8	0.11699051
7	0xbe1a30f7	-0.15057741
